…
      "WARNING:tensorflow:From /anaconda3/lib/python3.7/site-packages/tensorflow/python/framework/op_def_library.py:263: colocate_with (from tensorflow.python.framework.ops) is deprecated and will be removed in a future version.\n",
      "Instructions for updating:\n",
      "Colocations handled automatically by placer.\n",
      "Learning rate:  0.001\n",
      "__________________________________________________________________________________________________\n",
      "Layer (type)                    Output Shape         Param #     Connected to                     \n",
      "==================================================================================================\n",
      "input_1 (InputLayer)            (None, 100, 100, 1)  0                                            \n",
      "__________________________________________________________________________________________________\n",
      "conv2d_1 (Conv2D)               (None, 100, 100, 16) 160         input_1[0][0]                    \n",
      "__________________________________________________________________________________________________\n",
      "batch_normalization_1 (BatchNor (None, 100, 100, 16) 64          conv2d_1[0][0]                   \n",
      "__________________________________________________________________________________________________\n",
      "activation_1 (Activation)       (None, 100, 100, 16) 0           batch_normalization_1[0][0]      \n",
      "__________________________________________________________________________________________________\n",
      "conv2d_2 (Conv2D)               (None, 100, 100, 16) 2320        activation_1[0][0]               \n",
      "__________________________________________________________________________________________________\n",
      "batch_normalization_2 (BatchNor (None, 100, 100, 16) 64          conv2d_2[0][0]                   \n",
      "__________________________________________________________________________________________________\n",
      "activation_2 (Activation)       (None, 100, 100, 16) 0           batch_normalization_2[0][0]      \n",
      "__________________________________________________________________________________________________\n",
      "conv2d_3 (Conv2D)               (None, 100, 100, 16) 2320        activation_2[0][0]               \n",
      "__________________________________________________________________________________________________\n",
      "batch_normalization_3 (BatchNor (None, 100, 100, 16) 64          conv2d_3[0][0]                   \n",
      "__________________________________________________________________________________________________\n",
      "add_1 (Add)                     (None, 100, 100, 16) 0           activation_1[0][0]               \n",
      "                                                                 batch_normalization_3[0][0]      \n",
      "__________________________________________________________________________________________________\n",
      "activation_3 (Activation)       (None, 100, 100, 16) 0           add_1[0][0]                      \n",
      "__________________________________________________________________________________________________\n",
      "conv2d_4 (Conv2D)               (None, 100, 100, 16) 2320        activation_3[0][0]               \n",
      "__________________________________________________________________________________________________\n",
      "batch_normalization_4 (BatchNor (None, 100, 100, 16) 64          conv2d_4[0][0]                   \n",
      "__________________________________________________________________________________________________\n",
      "activation_4 (Activation)       (None, 100, 100, 16) 0           batch_normalization_4[0][0]      \n",
      "__________________________________________________________________________________________________\n",
      "conv2d_5 (Conv2D)               (None, 100, 100, 16) 2320        activation_4[0][0]               \n",
      "__________________________________________________________________________________________________\n",
      "batch_normalization_5 (BatchNor (None, 100, 100, 16) 64          conv2d_5[0][0]                   \n",
      "__________________________________________________________________________________________________\n",
      "add_2 (Add)                     (None, 100, 100, 16) 0           activation_3[0][0]               \n",
      "                                                                 batch_normalization_5[0][0]      \n",
      "__________________________________________________________________________________________________\n",
      "activation_5 (Activation)       (None, 100, 100, 16) 0           add_2[0][0]                      \n",
      "__________________________________________________________________________________________________\n",
      "conv2d_6 (Conv2D)               (None, 100, 100, 16) 2320        activation_5[0][0]               \n",
      "__________________________________________________________________________________________________\n",
      "batch_normalization_6 (BatchNor (None, 100, 100, 16) 64          conv2d_6[0][0]                   \n",
      "__________________________________________________________________________________________________\n",
      "activation_6 (Activation)       (None, 100, 100, 16) 0           batch_normalization_6[0][0]      \n",
      "__________________________________________________________________________________________________\n",
      "conv2d_7 (Conv2D)               (None, 100, 100, 16) 2320        activation_6[0][0]               \n",
      "__________________________________________________________________________________________________\n",
      "batch_normalization_7 (BatchNor (None, 100, 100, 16) 64          conv2d_7[0][0]                   \n",
      "__________________________________________________________________________________________________\n",
      "add_3 (Add)                     (None, 100, 100, 16) 0           activation_5[0][0]               \n",
      "                                                                 batch_normalization_7[0][0]      \n",
      "__________________________________________________________________________________________________\n",
      "activation_7 (Activation)       (None, 100, 100, 16) 0           add_3[0][0]                      \n",
      "__________________________________________________________________________________________________\n",
      "conv2d_8 (Conv2D)               (None, 50, 50, 32)   4640        activation_7[0][0]               \n",
      "__________________________________________________________________________________________________\n",
      "batch_normalization_8 (BatchNor (None, 50, 50, 32)   128         conv2d_8[0][0]                   \n",
      "__________________________________________________________________________________________________\n",
      "activation_8 (Activation)       (None, 50, 50, 32)   0           batch_normalization_8[0][0]      \n",
      "__________________________________________________________________________________________________\n",
      "conv2d_9 (Conv2D)               (None, 50, 50, 32)   9248        activation_8[0][0]               \n",
      "__________________________________________________________________________________________________\n",
      "conv2d_10 (Conv2D)              (None, 50, 50, 32)   544         activation_7[0][0]               \n",
      "__________________________________________________________________________________________________\n",
      "batch_normalization_9 (BatchNor (None, 50, 50, 32)   128         conv2d_9[0][0]                   \n",
      "__________________________________________________________________________________________________\n",
      "add_4 (Add)                     (None, 50, 50, 32)   0           conv2d_10[0][0]                  \n",
      "                                                                 batch_normalization_9[0][0]      \n",
      "__________________________________________________________________________________________________\n",
      "activation_9 (Activation)       (None, 50, 50, 32)   0           add_4[0][0]                      \n",
      "__________________________________________________________________________________________________\n",
      "conv2d_11 (Conv2D)              (None, 50, 50, 32)   9248        activation_9[0][0]               \n",
      "__________________________________________________________________________________________________\n",
      "batch_normalization_10 (BatchNo (None, 50, 50, 32)   128         conv2d_11[0][0]                  \n",
      "__________________________________________________________________________________________________\n",
      "activation_10 (Activation)      (None, 50, 50, 32)   0           batch_normalization_10[0][0]     \n",
      "__________________________________________________________________________________________________\n",
      "conv2d_12 (Conv2D)              (None, 50, 50, 32)   9248        activation_10[0][0]              \n",
      "__________________________________________________________________________________________________\n",
      "batch_normalization_11 (BatchNo (None, 50, 50, 32)   128         conv2d_12[0][0]                  \n",
      "__________________________________________________________________________________________________\n",
      "add_5 (Add)                     (None, 50, 50, 32)   0           activation_9[0][0]               \n",
      "                                                                 batch_normalization_11[0][0]     \n",
      "__________________________________________________________________________________________________\n",
      "activation_11 (Activation)      (None, 50, 50, 32)   0           add_5[0][0]                      \n",
      "__________________________________________________________________________________________________\n",
      "conv2d_13 (Conv2D)              (None, 50, 50, 32)   9248        activation_11[0][0]              \n",
      "__________________________________________________________________________________________________\n",
      "batch_normalization_12 (BatchNo (None, 50, 50, 32)   128         conv2d_13[0][0]                  \n",
      "__________________________________________________________________________________________________\n",
      "activation_12 (Activation)      (None, 50, 50, 32)   0           batch_normalization_12[0][0]     \n",
      "__________________________________________________________________________________________________\n",
      "conv2d_14 (Conv2D)              (None, 50, 50, 32)   9248        activation_12[0][0]              \n",
      "__________________________________________________________________________________________________\n",
      "batch_normalization_13 (BatchNo (None, 50, 50, 32)   128         conv2d_14[0][0]                  \n",
      "__________________________________________________________________________________________________\n",
      "add_6 (Add)                     (None, 50, 50, 32)   0           activation_11[0][0]              \n",
      "                                                                 batch_normalization_13[0][0]     \n",
      "__________________________________________________________________________________________________\n",
      "activation_13 (Activation)      (None, 50, 50, 32)   0           add_6[0][0]                      \n",
      "__________________________________________________________________________________________________\n",
      "conv2d_15 (Conv2D)              (None, 25, 25, 64)   18496       activation_13[0][0]              \n",
      "__________________________________________________________________________________________________\n",
      "batch_normalization_14 (BatchNo (None, 25, 25, 64)   256         conv2d_15[0][0]                  \n",
      "__________________________________________________________________________________________________\n",
      "activation_14 (Activation)      (None, 25, 25, 64)   0           batch_normalization_14[0][0]     \n",
      "__________________________________________________________________________________________________\n",
      "conv2d_16 (Conv2D)              (None, 25, 25, 64)   36928       activation_14[0][0]              \n",
      "__________________________________________________________________________________________________\n",
      "conv2d_17 (Conv2D)              (None, 25, 25, 64)   2112        activation_13[0][0]              \n",
      "__________________________________________________________________________________________________\n",
      "batch_normalization_15 (BatchNo (None, 25, 25, 64)   256         conv2d_16[0][0]                  \n",
      "__________________________________________________________________________________________________\n",
      "add_7 (Add)                     (None, 25, 25, 64)   0           conv2d_17[0][0]                  \n",
      "                                                                 batch_normalization_15[0][0]     \n",
      "__________________________________________________________________________________________________\n",
      "activation_15 (Activation)      (None, 25, 25, 64)   0           add_7[0][0]                      \n",
      "__________________________________________________________________________________________________\n",
      "conv2d_18 (Conv2D)              (None, 25, 25, 64)   36928       activation_15[0][0]              \n",
      "__________________________________________________________________________________________________\n",
      "batch_normalization_16 (BatchNo (None, 25, 25, 64)   256         conv2d_18[0][0]                  \n",
      "__________________________________________________________________________________________________\n",
      "activation_16 (Activation)      (None, 25, 25, 64)   0           batch_normalization_16[0][0]     \n",
      "__________________________________________________________________________________________________\n",
      "conv2d_19 (Conv2D)              (None, 25, 25, 64)   36928       activation_16[0][0]              \n",
      "__________________________________________________________________________________________________\n",
      "batch_normalization_17 (BatchNo (None, 25, 25, 64)   256         conv2d_19[0][0]                  \n",
      "__________________________________________________________________________________________________\n",
      "add_8 (Add)                     (None, 25, 25, 64)   0           activation_15[0][0]              \n",
      "                                                                 batch_normalization_17[0][0]     \n",
      "__________________________________________________________________________________________________\n",
      "activation_17 (Activation)      (None, 25, 25, 64)   0           add_8[0][0]                      \n",
      "__________________________________________________________________________________________________\n",
      "conv2d_20 (Conv2D)              (None, 25, 25, 64)   36928       activation_17[0][0]              \n",
      "__________________________________________________________________________________________________\n",
      "batch_normalization_18 (BatchNo (None, 25, 25, 64)   256         conv2d_20[0][0]                  \n",
      "__________________________________________________________________________________________________\n",
      "activation_18 (Activation)      (None, 25, 25, 64)   0           batch_normalization_18[0][0]     \n",
      "__________________________________________________________________________________________________\n",
      "conv2d_21 (Conv2D)              (None, 25, 25, 64)   36928       activation_18[0][0]              \n",
      "__________________________________________________________________________________________________\n",
      "batch_normalization_19 (BatchNo (None, 25, 25, 64)   256         conv2d_21[0][0]                  \n",
      "__________________________________________________________________________________________________\n",
      "add_9 (Add)                     (None, 25, 25, 64)   0           activation_17[0][0]              \n",
      "                                                                 batch_normalization_19[0][0]     \n",
      "__________________________________________________________________________________________________\n",
      "activation_19 (Activation)      (None, 25, 25, 64)   0           add_9[0][0]                      \n",
      "__________________________________________________________________________________________________\n",
      "average_pooling2d_1 (AveragePoo (None, 3, 3, 64)     0           activation_19[0][0]              \n",
      "__________________________________________________________________________________________________\n",
      "flatten_1 (Flatten)             (None, 576)          0           average_pooling2d_1[0][0]        \n",
      "__________________________________________________________________________________________________\n",
      "dense_1 (Dense)                 (None, 44)           25388       flatten_1[0][0]                  \n",
      "==================================================================================================\n",
      "Total params: 298,892\n",
      "Trainable params: 297,516\n",
      "Non-trainable params: 1,376\n",
      "__________________________________________________________________________________________________\n",
      "ResNet20v1\n"
     ]
…
